save_model/best_model.pth (torch, 250466 bytes, 10 tensors)

c1.weight f4 [6, 1, 5, 5]
0	0x3ebfe5fa	0.37480146
1	0x3ea2c4fa	0.31790906
2	0xbb538380	-0.0032274425
3	0x3e347478	0.17622554
4	0x3dc0bd8f	0.094111554
5	0xbc8da26e	-0.017289367
6	0x3beb00e7	0.0071717384
7	0xbe882092	-0.2658735
8	0xbe574c51	-0.21025206
9	0xbeb36f9b	-0.35046086
10	0xbe8167e2	-0.2527457
11	0xbeb45778	-0.35222983
12	0xbea66849	-0.32501438
13	0xbf01e86f	-0.5074529
14	0xbed5ff14	-0.41796172
15	0x3dde7188	0.10861498
16	0xbe2124f1	-0.15736748
17	0xbe9296c5	-0.28630653
18	0xbe86ee32	-0.26353604
19	0xbed4b057	-0.41540787
20	0x3e3af663	0.18258052
21	0xbd718847	-0.058967855
22	0xbec15ab6	-0.3776452
23	0xbe968919	-0.29401472
24	0xbd641677	-0.055685487
25	0x3e63fc2e	0.22264168
26	0x3d2a3102	0.041550644
27	0x3e184436	0.1486977
28	0x3f00e3f1	0.5034781
29	0x3eb85ad8	0.36006808
30	0x3f177ca8	0.59174585
31	0x3f31e26e	0.6948613
32	0x3f35421f	0.7080402
33	0x3f0187a9	0.50597626
34	0x3ed49912	0.41523033
35	0x3f186f65	0.59544975
36	0x3ea4a84e	0.32159656
37	0x3f0eb2e1	0.557417
38	0x3f1f7742	0.6229135
39	0x3e2719f5	0.16318496
40	0x3da69ea3	0.08135726
41	0x3eda85bd	0.4268016
42	0x3eb1501b	0.34631428
43	0x3e3a163f	0.18172549
44	0xbdf56732	-0.119825736
45	0xbe09a83a	-0.1344308
46	0xbeac1fef	-0.33618113
47	0xbf002d64	-0.5006926
48	0xbeaa5502	-0.3326798
49	0xbf13dfc7	-0.5776333
50	0xbdae2bbf	-0.08504438
51	0x3d1e0e3b	0.03858779
52	0x3c1b8378	0.009491794
53	0x3e68978f	0.22714065
54	0x3ed66795	0.41875902
55	0x3ec7f687	0.39055273
56	0x3f1d625c	0.6147821
57	0x3eb289f7	0.34870884
58	0x3f3bcc37	0.7335848
59	0x3f08bc59	0.53412396
60	0x3f35c7a8	0.71007776
61	0x3f3dccce	0.7414063
62	0x3f31df48	0.69481325
63	0x3f5314a1	0.8245335
64	0x3ee632b7	0.44960567
65	0x3ef2407e	0.4731483
66	0x3f19828d	0.5996483
67	0x3f14e4e0	0.58161736
68	0x3ec22581	0.37919238
69	0x3e6f992d	0.23398276
70	0x3e1238ab	0.1427943
71	0x3e174977	0.14774118
72	0xbe4c297e	-0.19937703
73	0xbdf27771	-0.11839188
74	0xbeb8a92f	-0.36066577
75	0xbf14e0b2	-0.5815536
76	0xbf28da9c	-0.6595857
77	0xbf0c94c6	-0.5491451
78	0xbea78804	-0.3272096
79	0xbe86080a	-0.26178008
80	0xbef331dc	-0.47498977
81	0xbe2560c9	-0.16150202
82	0x3db7ac8a	0.08968456
83	0x3e9ab7f0	0.30218458
84	0x3e49a48d	0.19691677
85	0xbe00ee3a	-0.12590876
86	0x3ea936d8	0.33049655
87	0x3f0b7917	0.54481643
88	0x3f2e2931	0.68031603
89	0x3f110948	0.5665479
90	0x3ea1ad9b	0.31577763
91	0x3f012d77	0.5046
92	0x3f2b65ad	0.6695202
93	0x3f28b135	0.65895396
94	0x3f324033	0.6962921
95	0x3de592b1	0.1120962
96	0x3e903f56	0.2817332
97	0x3f0ab374	0.54180074
98	0x3e962da6	0.29331702
99	0x3eec4a6b	0.46150526
100	0x3ee299ab	0.44257864
101	0x3d5daa28	0.05411735
102	0x3dfde5db	0.12397357
103	0xbea4c08b	-0.3217815
104	0xbebe1762	-0.37127215
105	0xbe0a55dd	-0.13509317
106	0xbe034feb	-0.12823455
107	0xbecae3f3	-0.39627036
108	0xbee0a0c8	-0.43872666
109	0xbf2524d0	-0.64509296
110	0x3ca33cfa	0.019926537
111	0xbebf012e	-0.37305588
112	0xbee5fa86	-0.44917697
113	0xbee4bfec	-0.44677675
114	0xbf0313ac	-0.5120189
115	0x3e045634	0.12923509
116	0xbe30009b	-0.17187731
117	0xbf19b729	-0.60045105
118	0xbe7e13cf	-0.24812244
119	0xbe96c29e	-0.29445356
120	0x3eab8902	0.33502966
121	0xbd8a78b2	-0.06761302
122	0xbde01786	-0.10941987
123	0xbc353dfb	-0.011062141
124	0x3e0fbfbb	0.14037983
125	0x3f09c85e	0.5382136
126	0x3e654629	0.22390045
127	0xbb464192	-0.0030251485
128	0x3e87adb6	0.26499718
129	0xbdb4c284	-0.088261634
130	0x3e563e19	0.20922126
131	0x3beb2bdd	0.00717686
132	0xbd985768	-0.074385464
133	0xbeabbb9c	-0.33541572
134	0xbef63259	-0.48085287
135	0xbe63226e	-0.22181103
136	0xbe96b608	-0.29435754
137	0xbed531a2	-0.4163943
138	0xbf277396	-0.65410745
139	0xbf057163	-0.5212614
140	0xbea2d2c6	-0.31801432
141	0xbee580ec	-0.44824922
142	0xbed6b235	-0.41932836
143	0xbf1945e6	-0.5987228
144	0xbea30ad0	-0.31844187
145	0x3aca30b7	0.0015425895
146	0xbe97f820	-0.29681492
147	0xbe923957	-0.28559372
148	0xbe848e64	-0.25889885
149	0x3e3fb481	0.187212

c1.bias f4 [6]
0	0x3ef74efc	0.48302448
1	0xbf706a79	-0.93912464
2	0xbfb25f8f	-1.3935412
3	0xbf47cbf0	-0.7804556
4	0x3f379626	0.71713483
5	0x3f43b75f	0.7645168

c3.weight f4 [16, 6, 5, 5]
0	0xbc07e0a7	-0.008293307
1	0xbd8845bc	-0.06653926
2	0xbd9ed404	-0.077552825
3	0x3a207f6c	0.0006122503
4	0x3da1fa31	0.07909048
5	0x3cce8672	0.025210593
6	0xbde95f03	-0.11395075
7	0xbd853a3b	-0.06505247
8	0x3c1fbb75	0.009749283
9	0xbaac9eae	-0.0013169849
10	0xbe22f596	-0.15913996
11	0xbe01815b	-0.12647001
12	0x3d3f16e3	0.046652686
13	0x3d79df60	0.061004043
14	0x3d9d3220	0.07675576
15	0xbdbb7e81	-0.09154988
16	0x3bad9770	0.005297594
17	0x3e0a2022	0.1348882
18	0x3d012e90	0.031538546
19	0x3d9a38e4	0.07530382
20	0xbe0265bc	-0.12734121
21	0x3c643d26	0.013930595
22	0x3d185063	0.037186038
23	0xbd2bbbe5	-0.041927237
24	0xbd00baf7	-0.031428304
25	0xbd8a2cf3	-0.06746855
26	0xbcb14488	-0.021639124
27	0x3d0f9c9d	0.035061467
28	0x3dc54529	0.09632332
29	0xbd44b028	-0.04801956
30	0xbe19b037	-0.15008627
31	0xbca2535e	-0.019815143
32	0x3d8c1163	0.06839254
33	0xbd90f63c	-0.070782155
34	0xbdf1a1bb	-0.11798426
35	0x3c6ccdcb	0.014453362
36	0x3da0a59e	0.07844089
37	0xba5534bf	-0.0008133165
38	0xbdf5b771	-0.11997879
39	0xbe755966	-0.23959884
40	0x3e0ff9ac	0.14060086
41	0x3e2d57f5	0.16928084
42	0xbe00c58b	-0.12575357
43	0xbe7ee307	-0.24891292
44	0xbe4d1ec3	-0.20031266
45	0x3e2263b2	0.15858343
46	0x3e0cef64	0.13763195
47	0xbd4cf5c7	-0.05003908
48	0xbe8cd9d2	-0.27509934
49	0xbe52ba8b	-0.20578973
50	0xbdcc190a	-0.09965713
51	0xbdc74b1e	-0.09731124
52	0x3d96cde7	0.073634915
53	0xbd0853b9	-0.03328297
54	0xbe26c770	-0.16287017
55	0xbdf757cf	-0.12077295
56	0x3dac9517	0.08426874
57	0xbd46116c	-0.04835646
58	0xbe0f658a	-0.14003578
59	0xbe8aa716	-0.270806
60	0x3ce46dc8	0.027884379
61	0x3d8939ce	0.067004785
62	0xbd7f1b89	-0.06228212
63	0xbe6dd051	-0.23223998
64	0xbe97590a	-0.2956012
65	0x3e1c07dc	0.15237373
66	0x3e0766ba	0.13222781
67	0xbe114dda	-0.14189854
68	0xbea6ce30	-0.32579184
69	0xbe401575	-0.18758185
70	0x3e26d552	0.16292313
71	0x3dc03101	0.09384347
72	0xbe466760	-0.19375372
73	0xbe8cd4c9	-0.27506092
74	0xbe28c0f3	-0.16479854
75	0xbe1be401	-0.15223695
76	0x3c97a3e8	0.018510774
77	0x3d7509d4	0.059823826
78	0xbc864963	-0.016392415
79	0xbe55fd1a	-0.20897332
80	0xbd461dc3	-0.048368227
81	0x3dec49d6	0.115375206
82	0xbce945fa	-0.02847575
83	0xbe9939ea	-0.29926997
84	0xbe3eaacd	-0.18619843
85	0x3d8aab55	0.0677096
86	0x3b8690ce	0.0041066175
87	0xbe773fc4	-0.24145418
88	0xbeb0f738	-0.34563613
89	0xbe2301ad	-0.15918608
90	0x3d7bb689	0.061453376
91	0xbd3a3100	-0.045456886
92	0xbea7a4e0	-0.32742977
93	0xbe2be3ed	-0.16786166
94	0x3c2ae897	0.01043143
95	0xbcb3fcd2	-0.02197114
96	0xbe2aed55	-0.16692097
97	0xbe81e690	-0.25371218
98	0xbd603a35	-0.05474301
99	0x3d43eb7e	0.047832005
100	0x3d7e0c43	0.062023412
101	0xbe05437a	-0.13014022
102	0xbdeb856d	-0.11500058
103	0x3d60e327	0.05490413
104	0x3d3d97e9	0.04628745
105	0xbd84aa3d	-0.06477783
106	0xbdbf2209	-0.093326636
107	0x3c5197b9	0.012792521
108	0x3e2ade4a	0.16686359
109	0x3caa6647	0.020800723
110	0xbdad81f9	-0.08472056
111	0xbd02d1d7	-0.0319384
112	0x3df83fbc	0.12121531
113	0x3dd86e20	0.1056788
114	0x3d57aec2	0.052656896
115	0xbe218bdf	-0.15776013
116	0x3d71e6ae	0.059057884
117	0x3e2ad39a	0.16682282
118	0x3e5830fc	0.21112436
119	0x3d99ae29	0.075039215
120	0xbd5b059c	-0.053472146
121	0xbd163b15	-0.03667744
122	0x3e179e37	0.14806448
123	0x3d7a5909	0.061120067
124	0xbd08f273	-0.033434343
125	0x3da8a06e	0.082337245
126	0xbddae73b	-0.10688635
127	0xbe34d097	-0.17657696
128	0xbdb2f477	-0.08738034
129	0x3c522812	0.012826936
130	0x3c3d8e83	0.011569622
131	0xbd5498d3	-0.051903557
132	0xbd23dda8	-0.04000631
133	0x3e2cb481	0.16865732
134	0x3e23820b	0.15967576
135	0xbe300eb5	-0.1719311
136	0xbe2e811a	-0.17041436
137	0x3ddf4220	0.10901284
138	0x3e5cad16	0.21550402
139	0x3d45d4a1	0.04829848
140	0xbe31085d	-0.17288347
141	0x3cdd301c	0.02700048
142	0x3e70e604	0.23525244
143	0x3e6b1384	0.22956663
144	0x3d060a5c	0.032724723
145	0xbe008522	-0.12550786
146	0x3d3283d1	0.04358274
147	0x3e21bd0a	0.15794769
148	0x3dff113e	0.124544606
149	0xbd028eeb	-0.03187458
150	0xbca33192	-0.019921098
151	0xbe239392	-0.15974262
152	0xbdca6405	-0.098823585
153	0xbd6f1777	-0.058371987
154	0xbe56e5dc	-0.20986122
155	0x3e1de3ee	0.1541898
156	0x3d905549	0.07047517
157	0x3d985851	0.0743872
158	0x3dac60ad	0.08416877
159	0xbcc669d5	-0.024220387
160	0x3e74ae70	0.23894668
161	0x3e0e68f6	0.13907227
162	0x3e357b3f	0.17722796
163	0x3df77f3b	0.12084814
164	0xbc84ea41	-0.016224982
165	0x3c82f7c9	0.015987294
166	0x3e055b79	0.13023175
167	0x3e147f18	0.14501607
168	0x3d1c2d7a	0.038129307
169	0xbd905f44	-0.070494205
170	0xbce6de63	-0.028182214
171	0x3d49ee72	0.049299665
172	0x3d423ea1	0.04742301
173	0xbd6d3e3d	-0.057920683
174	0xbe14561c	-0.14485973
175	0x3e14307a	0.14471617
176	0x3e23cd6c	0.15996331
177	0x3e3e1381	0.18562128
178	0x3e09692d	0.13419028
179	0x3e6ecec5	0.23321064
180	0x3d12a764	0.035804167
181	0xbd890686	-0.06690697
182	0xbb9e4b35	-0.0048307427
183	0xbd3aa49f	-0.04556715
184	0x3d40d261	0.047075633
185	0xbe7952c0	-0.24347973
186	0xbe362214	-0.17786437
187	0xbe9d1721	-0.30681708
188	0xbe9f1ea7	-0.31078073
189	0xbe5522b5	-0.20814021
190	0xbe749b22	-0.23887303
191	0xbe4ffca9	-0.20311226
192	0xbe64017a	-0.22266188
193	0xbebb7236	-0.36610574
194	0xbe818c54	-0.25302374
195	0xbd85615f	-0.06512713
196	0xbe30c46c	-0.17262429
197	0xbe35570e	-0.1770899
198	0xbe2f2f00	-0.17107773
199	0xbc91e7fb	-0.017810812
200	0x3e0c16f0	0.13680625
201	0x3cf3c829	0.02975853
202	0x3e4e680d	0.2015688
203	0x3e61c82b	0.22049014
204	0x3e413253	0.18866853
205	0xbe28b648	-0.16475785
206	0xbe51f87c	-0.20504946
207	0xbe4278df	-0.18991421
208	0xbddc012b	-0.1074241
209	0xbd935d65	-0.07195548
210	0xbea27a8d	-0.31734124
211	0xbea4c1fa	-0.32179242
212	0xbec67bb3	-0.3876625
213	0xbed514c8	-0.41617417
214	0xbe7bfef9	-0.24608983
215	0xbea15da1	-0.31516746
216	0xbe7eb67b	-0.24874298
217	0xbecd16e9	-0.40056542
218	0xbed20548	-0.41019654
219	0xbe05dc34	-0.13072282
220	0xbe05b808	-0.13058484
221	0xbdd86285	-0.10565666
222	0xbda1d934	-0.07902756
223	0xbe0cec99	-0.1376213
224	0x3dd9ee16	0.106411144
225	0xbd4b1337	-0.04957887
226	0x3db322dc	0.08746883
227	0x3d9fedbd	0.07809017
228	0x3d331d43	0.043729078
229	0x3e1a0589	0.15041174
230	0xbe917824	-0.28411973
231	0xbe6df5e0	-0.23238325
232	0xbe9bd096	-0.30432576
233	0xbe8fa1af	-0.28053042
234	0xbe283972	-0.16428164
235	0xbeb97899	-0.3622482
236	0xbea3735d	-0.31923953
237	0xbe900a13	-0.28132686
238	0xbe9cdc58	-0.3063686
239	0xbdeae726	-0.11469869
240	0xbd5865da	-0.05283151
241	0xbdbc4a68	-0.09193879
242	0xbe284a1a	-0.16434518
243	0xbd0e9afc	-0.034815773
244	0x3c8faab2	0.017537449
245	0xbd84ba7e	-0.06480883
246	0xbd281025	-0.04103102
247	0x3db1d778	0.086836755
248	0x3d9e8c03	0.07741549
249	0x3e2eddde	0.17076823
250	0xbd9c36e7	-0.07627659
251	0xbde1db14	-0.11028114
252	0xbe4cb53f	-0.19991015
253	0xbe0f311f	-0.13983582
254	0xbe3e6a0f	-0.18595146
255	0x3d8cea50	0.06880629

c3.bias f4 [16]
0	0xbb65f503	-0.0035088665
1	0xbd670b1c	-0.05640708
2	0x3da3fa08	0.08006674
3	0xbdc99061	-0.09841991
4	0xbe08dab9	-0.13364686
5	0xbd5d4611	-0.0540219
6	0xbc5aab9f	-0.013346582
7	0xbdc04361	-0.093878515
8	0xbdd99ec0	-0.10625982
9	0xbe022a57	-0.12711464
10	0xbdc53fff	-0.09631347
11	0xbcfc6f3c	-0.03081476
12	0xbdd5842d	-0.10425601
13	0x3c70fd47	0.0147088235
14	0xbd608c5c	-0.054821357
15	0xbdacf140	-0.08444452

c5.weight f4 [120, 16, 5, 5]
0	0xbc19aa22	-0.009378942
1	0xbbc6aa5f	-0.0060627903
2	0xbd57e6fa	-0.05271051
3	0xbbaa6b8d	-0.0052008093
4	0x3c95b092	0.018272672
5	0x3cac37f6	0.021022778
6	0x3d7d7f98	0.06188926
7	0x3d623b00	0.055232048
8	0xbd5ea0ef	-0.054352697
9	0x3ca06e53	0.019583857
10	0x3d618641	0.055059675
11	0x3c29ece7	0.010371423
12	0x3d89a3db	0.06720706
13	0x3d423158	0.04741034
14	0xbd678bb1	-0.056529704
15	0x3ca69de2	0.020338956
16	0xbbbf28b7	-0.005833711
17	0xbd963781	-0.07334805
18	0xba75c62f	-0.000937554
19	0xbaeadc25	-0.0017918391
20	0x3af0a361	0.0018359238
21	0xbc728278	-0.014801614
22	0xbd6af3ac	-0.05736129
23	0x3ca3a8a0	0.019977868
24	0xbcd959b2	-0.026532028
25	0x3da67131	0.08127058
26	0xbcc473b9	-0.023980962
27	0xbdd7ded7	-0.1054055
28	0xbdc83c43	-0.09777119
29	0x3d5aef7d	0.05345105
30	0x3c475883	0.012167099
31	0xbd897288	-0.06711298
32	0x3cc1d132	0.023659322
33	0x3d46c87c	0.04853104
34	0xbd21a200	-0.039461136
35	0xbc059e0f	-0.00815536
36	0xbd972ca6	-0.07381563
37	0x3d85fd26	0.06542425
38	0x3d67166d	0.05641787
39	0xbe010087	-0.12597857
40	0xbd043526	-0.03227725
41	0xbddb1e92	-0.1069919
42	0xbde02dfb	-0.1094627
43	0xbd04ae08	-0.03239253
44	0xbd46e82b	-0.048561256
45	0x3d78a546	0.060704492
46	0xbd8ab4f9	-0.06772799
47	0xbd41c931	-0.04731101
48	0xbd40a5c2	-0.04703308
49	0x3c48da63	0.012259099
50	0xba97824a	-0.0011559215
51	0x3d886255	0.0665938
52	0x3dac1321	0.08402086
53	0x3d51abdb	0.051189285
54	0x3d2eb82d	0.042656112
55	0x3ca4b93f	0.020107863
56	0x3d939c43	0.07207539
57	0xbc8143cb	-0.015779397
58	0x3cf8e30f	0.030381707
59	0x3e1cdee7	0.15319405
60	0xbd6a2996	-0.057168566
61	0xbd082563	-0.03323878
62	0x3cecc1fa	0.028901089
63	0xbc8ed3f1	-0.017435046
64	0xbdb29182	-0.0871916
65	0xbd5b4f0a	-0.053542174
66	0xbd880552	-0.0664164
67	0x3b3a49a2	0.0028425236
68	0x3d019bb5	0.031642634
69	0x3c4da5cc	0.012551736
70	0xba5bd66e	-0.00083861395
71	0xbd96a0b4	-0.073548704
72	0xbd82f68c	-0.06394681
73	0xbd223998	-0.039605707
74	0x3d2eb96e	0.04265731
75	0xbba280d3	-0.0049592047
76	0xbd9c69be	-0.07637356
77	0xbca93b4c	-0.020658158
78	0x3c9fdffb	0.019515982
79	0xbcaae6d7	-0.020862026
80	0xbcd3ab2f	-0.025838463
81	0xbd80799d	-0.06273196
82	0xbdc206fd	-0.09473989
83	0x3b74557f	0.0037282405
84	0x3c630358	0.013855778
85	0x3d58eb90	0.052959025
86	0x3d3ecb98	0.04658088
87	0x3c691ee3	0.014228555
88	0xbc829353	-0.01593939
89	0xbd83b576	-0.06431095
90	0xbd4ec73b	-0.05048297
91	0x3d1efe5f	0.038816806
92	0x3d1a090c	0.037606284
93	0x3c767b26	0.015044009
94	0xbce92ed7	-0.028464718
95	0xbda307e3	-0.07960489
96	0x3c3869c9	0.01125569
97	0x3d28d7a7	0.041221287
98	0xbc08217d	-0.0083087655
99	0x3d83d44a	0.06436975
100	0x3c188718	0.009309553
101	0xbd0b8eb9	-0.034071658
102	0x3cc666de	0.024218973
103	0x3c0c6436	0.008568814
104	0xbc007ca9	-0.007842221
105	0x3b01eaff	0.0019823906
106	0x3ccaf983	0.02477718
107	0xbd0b6aae	-0.034037285
108	0xbd6c15fa	-0.057638146
109	0x3c9aeca6	0.01891167
110	0x3d12576f	0.035727914
111	0x3bca7fa7	0.006179768
112	0xbd408b34	-0.047007754
113	0x3ca7e4ce	0.020494845
114	0x3cb361f7	0.0218973
115	0xbb6ec580	-0.0036433637
116	0x3d4538e2	0.04814995
117	0xbdbad607	-0.09122854
118	0xbbde9344	-0.006792458
119	0xbd470e06	-0.04859736
120	0xbd396ea2	-0.045271523
121	0x3b762907	0.0037561075
122	0xba6bf7c1	-0.0009001457
123	0xbd26fef8	-0.0407705
124	0x3d3a804b	0.045532506
125	0xbc47b86f	-0.0121899685
126	0xbc2085e7	-0.00979755
127	0x3cc2438c	0.02371385
128	0xbb8979ad	-0.004195413
129	0xbbf48b3e	-0.007462888
130	0x3ce35dac	0.027754627
131	0x3b91da5f	0.0044510807
132	0xbd9d581e	-0.07682823
133	0xbd2fa926	-0.042885922
134	0xbceae960	-0.028675735
135	0xbd1aebae	-0.037822418
136	0x3bb1f9af	0.005431376
137	0xbd9f3079	-0.07772917
138	0x3c5ffc2e	0.013670964
139	0xb963fb07	-0.00021741922
140	0xbcdf49b7	-0.02725683
141	0x3ce759ae	0.028241005
142	0xbd06d4fa	-0.032917954
143	0xbd5e6a62	-0.054300673
144	0xbc3b402d	-0.011428875
145	0x3d1d3ef8	0.03839013
146	0xbc8eca20	-0.017430365
147	0xbd2e8e69	-0.04261628
148	0x3d4074f7	0.046986546
149	0x3c89dc17	0.01682858
150	0x3cda032f	0.026612846
151	0x3ce36fd9	0.027763294
152	0x3c8238e2	0.015896264
153	0xbd83f1d5	-0.0644261
154	0xbd483093	-0.04887445
155	0xbd110373	-0.03540368
156	0xbbee9b5e	-0.007281705
157	0x3c99fe60	0.018798053
158	0xbdbd8036	-0.0925297
159	0xbdf6c577	-0.12049382
160	0x3c03b701	0.008039237
161	0xbc3b7ee4	-0.011443827
162	0xbbf389b4	-0.007432187
163	0x3d6fbc48	0.05852917
164	0x3c07aa67	0.008280373
165	0xbc85ae25	-0.01631839
166	0x3c0acfa6	0.008472359
167	0xbcab3c12	-0.020902667
168	0x3d319c32	0.04336185
169	0xba3451b8	-0.0006878632
170	0x3d261a2a	0.040552296
171	0xbb84a9f4	-0.0040485803
172	0x3d0d947c	0.034565434
173	0xbd58e9bb	-0.052957278
174	0xb9fe5a15	-0.00048513772
175	0x3c46a1d6	0.012123546
176	0x3c6cbf11	0.014449851
177	0xbd0c160a	-0.034200706
178	0xbdab392e	-0.083605155
179	0xbd35f72e	-0.044425182
180	0xbd2e9304	-0.042620674
181	0xbcee513b	-0.029091468
182	0xbdc23cbc	-0.094842404
183	0x3d7642af	0.06012219
184	0xbd815f75	-0.06317035
185	0x3d3a4d4c	0.045483872
186	0xbc14969e	-0.009069113
187	0xbd840b3c	-0.06447455
188	0x3de3af88	0.11117464
189	0xbcfee0ac	-0.031112991
190	0x3d98b0b5	0.07455579
191	0x3d3e594b	0.046471875
192	0xbdf20468	-0.11817247
193	0xbd57e250	-0.052706063
194	0xbd2d7be7	-0.04235449
195	0x3d7a3618	0.061086744
196	0xbdb74663	-0.08948972
197	0xbdef6558	-0.11689252
198	0xbc177a75	-0.009245505
199	0xbd83c8d1	-0.06434787
200	0x3d35ce04	0.044385925
201	0x3d2111ec	0.039323732
202	0xbe1262a6	-0.14295444
203	0xbd0fbeaa	-0.03509394
204	0x3c1a59fe	0.00942087
205	0xbc3b156a	-0.01141868
206	0xbdb07d3a	-0.08617635
207	0x3d3aff95	0.0456539
208	0xbd8ec4d6	-0.06971137
209	0x3cc93451	0.02456108
210	0xbd776d69	-0.060407076
211	0xbd44a48e	-0.048008494
212	0x3d6c2730	0.05765456
213	0x3cb92f6b	0.022605618
214	0xbd1f810d	-0.03894143
215	0x3c9befce	0.019035246
216	0xbd5560d1	-0.052094284
217	0xbd243cb9	-0.040096972
218	0x3d278049	0.040893827
219	0x3c5f6802	0.013635637
220	0x3c9015a9	0.017588453
221	0xbda23fa8	-0.07922298
222	0xbcbd6019	-0.023117112
223	0xbcef8213	-0.029236829
224	0xbcd5cf38	-0.026099786
225	0x3c536818	0.012903236
226	0x3c542e68	0.012950517
227	0xbd2b1067	-0.04176369
228	0x3aad33ab	0.0013214251
229	0x3c9a0841	0.018802764
230	0xbcee94a4	-0.029123612
231	0xbce04eb7	-0.027381284
232	0xbbc9cf9c	-0.006158782
233	0x3c04f497	0.008114955
234	0xbd4875db	-0.04894052
235	0x3c993d33	0.01870594
236	0xbbaf5e11	-0.0053517898
237	0xbc9e4e31	-0.019324394
238	0xbd6a9c28	-0.05727783
239	0x3cbbac5a	0.022909332
240	0xbc884aaf	-0.016637174
241	0xbd4ddd28	-0.05025974
242	0x3d51c3c2	0.05121208
243	0x3c029cea	0.007971982
244	0xbd494d91	-0.04914624
245	0xbd02363e	-0.03179001
246	0xbc7e1a72	-0.015509235
247	0xbbac0a3f	-0.005250245
248	0xbc9e5ebe	-0.019332286
249	0xbcf9abd4	-0.030477442
250	0x3d028a01	0.031869892
251	0x3d4f641b	0.050632577
252	0x3d32a11f	0.04361069
253	0x3ce29212	0.027657542
254	0x3d6dee8e	0.05808883
255	0xbd1f03bb	-0.038821917

c5.bias f4 [120]
0	0xbca4f41b	-0.02013593
1	0x3d1171c2	0.03550888
2	0x3cda5d07	0.026655687
3	0xbbf806c2	-0.007569165
4	0xbc809e0b	-0.01570036
5	0xbc4836ea	-0.012220124
6	0x3d60f374	0.054919675
7	0xbc65766b	-0.014005284
8	0xbd10a59c	-0.035314187
9	0x3d428f7d	0.047500122
10	0xbd334c80	-0.043774128
11	0x3d3f7fff	0.046752926
12	0x3cdc84dd	0.026918823
13	0xbcb6a534	-0.022295572
14	0x3bf85a28	0.007579107
15	0x3d0aa8c2	0.033852346
16	0xbd423cc9	-0.04742125
17	0xbd171da5	-0.036893506
18	0xbcdb9853	-0.026806032
19	0x3d58215f	0.0527662
20	0xb9a7c9e7	-0.0003200315
21	0x3d0da372	0.0345797
22	0x3c58cfca	0.0132331345
23	0x3d16bc25	0.036800522
24	0x3d05952c	0.032612965
25	0x3b55fc74	0.0032651694
26	0x3caae6e1	0.020862045
27	0xbd1e68ae	-0.03867405
28	0x3cef9e76	0.029250365
29	0xbd978820	-0.07399011
30	0x3c78935e	0.015171854
31	0xbc57433f	-0.013138591
32	0x3c48cd5b	0.012255992
33	0x3c4f7526	0.012662208
34	0xbcf71a3a	-0.030163873
35	0x3c054f54	0.008136589
36	0xbbc26355	-0.0059322515
37	0xbbfd9c88	-0.0077396072
38	0x3c8c1933	0.01710186
39	0x3c9ded8f	0.019278316
40	0x3d955ee3	0.07293489
41	0xbcd7652e	-0.026293363
42	0x3caafc3b	0.020872226
43	0xbcbbd5e7	-0.022929145
44	0xbb4b0865	-0.0030980345
45	0xbce0007f	-0.027343987
46	0xbc828ce6	-0.015936326
47	0xbc93d11b	-0.018044045
48	0xbd58d2fe	-0.052935593
49	0x3c960001	0.018310549
50	0xbcb6f9df	-0.022335945
51	0xb988fc8b	-0.000261281
52	0x3c4aaa0a	0.012369642
53	0xbc5ea9f1	-0.013590322
54	0x3d59c8cd	0.053170014
55	0x3c9db0f7	0.019249422
56	0x3c934667	0.017977906
57	0xbd0c79b2	-0.034295745
58	0xbcd6e03f	-0.026229976
59	0xbc96400f	-0.018341092
60	0x3d18965c	0.03725277
61	0xbcb534e7	-0.022119952
62	0x3cedf391	0.029046806
63	0x3b870e4c	0.0041215774
64	0xbd27945b	-0.040912967
65	0xbd1a0eb0	-0.037611663
66	0x3b30d5ea	0.0026982971
67	0xbd836ec2	-0.0641761
68	0x3cf41055	0.029792944
69	0xbd373a24	-0.04473318
70	0x3c5722fb	0.013130899
71	0x3d08e149	0.033417974
72	0xbd7ed2cd	-0.062212754
73	0x3bbdf313	0.005796799
74	0x3c2d9e43	0.010596815
75	0xbb2873e7	-0.0025703849
76	0x3d528e83	0.05140544
77	0x3c8c4cb9	0.017126428
78	0xbd8a93be	-0.06766461
79	0xbd792429	-0.0608255
80	0x3ccafc67	0.024778558
81	0x3d1fe6ef	0.039038595
82	0xbc5c40d5	-0.013443192
83	0x3ce8a99a	0.028401185
84	0x3d342a5a	0.043985702
85	0xbccc3e36	-0.024932008
86	0x3bcc8152	0.006241002
87	0x3c8e2d0c	0.017355464
88	0xbc9f3c6f	-0.019437997
89	0xbccfa9e2	-0.025349561
90	0xbbcc81a9	-0.0062410426
91	0xbce85856	-0.028362434
92	0x3d5fef9b	0.054671865
93	0xbc98096d	-0.018559182
94	0x3ca7cdcf	0.02048388
95	0x3d80e495	0.062935986
96	0x3c8f84bf	0.017519353
97	0xbd843074	-0.06454554
98	0x3d029f1b	0.031890016
99	0x3d4a3ffc	0.049377427
100	0xbd8137c9	-0.06309468
101	0xbd94e95b	-0.072710715
102	0xba150d3e	-0.0005685872
103	0x3d0118a8	0.031517655
104	0x3c229b08	0.009924658
105	0x3b149f49	0.002267795
106	0xbd16db3d	-0.036830176
107	0xbd0ca55b	-0.034337383
108	0x3d1a7fc7	0.037719514
109	0x3cd7c84c	0.026340626
110	0x3d26c0a3	0.040711056
111	0xbd01b4c5	-0.031666536
112	0xbc48f2c2	-0.012264909
113	0x3d541107	0.05177405
114	0xbd303eb6	-0.043028556
115	0xbd7a5c9d	-0.06112348
116	0xbc93e4ac	-0.018053375
117	0xbd081d9e	-0.03323137
118	0xbce01cab	-0.02735742
119	0xba9470f0	-0.0011325162

f6.weight f4 [84, 120]
0	0xbe0ae148	-0.135625
1	0x3ce5a482	0.028032545
2	0x3d74a1fc	0.059724793
3	0x3d70633e	0.058688395
4	0xbdc9f225	-0.098606385
5	0xbdee4d8c	-0.11635885
6	0x3db2c57a	0.08729072
7	0xbd210abc	-0.039316878
8	0x3dea6450	0.11444914
9	0x3d971a5e	0.07378076
10	0xbbfaec32	-0.007657551
11	0xbd84b471	-0.06479729
12	0xb9e181b8	-0.00043011992
13	0xbdb89f2b	-0.09014734
14	0x3d64cccc	0.055859372
15	0xbd582746	-0.05277183
16	0x3ca812aa	0.020516712
17	0xbdd63571	-0.10459412
18	0x3cd730f4	0.02626846
19	0xbc0c8f49	-0.008579084
20	0x3e0e3462	0.1388717
21	0xbd1c3b6a	-0.0381426
22	0xbd287c17	-0.041133966
23	0x3b989470	0.004656367
24	0x3d9aedaa	0.07564862
25	0xbe163d8c	-0.14671916
26	0xbd62e93d	-0.055398215
27	0xbd433b5b	-0.047664028
28	0x3b2a43c3	0.002598033
29	0xbcad84aa	-0.021181423
30	0x3c9c82b1	0.019105287
31	0x3d22d78a	0.039756335
32	0xbceda44d	-0.029009009
33	0x3ddb4337	0.107061796
34	0xbc8ed67c	-0.017436258
35	0xbd924b36	-0.071432516
36	0x3db28c08	0.08718115
37	0x3bf02bea	0.0073294537
38	0xbd4a05c7	-0.049321916
39	0x3d8bedb3	0.06832447
40	0x3c80de3d	0.015730971
41	0xbd167f89	-0.03674272
42	0xbdc1376f	-0.09434401
43	0xbd8a9b0f	-0.06767856
44	0x3d3e39fd	0.04644202
45	0x3d4213bf	0.047382113
46	0x3daf09ba	0.08546777
47	0x3de214c8	0.1103912
48	0x3dc53c71	0.09630669
49	0xbdce6ad0	-0.100789666
50	0xbd340e43	-0.043958914
51	0x3d5ea556	0.054356895
52	0x3cbfc5e2	0.023409788
53	0xbdc33942	-0.095324054
54	0x3de40e23	0.11135509
55	0x3d5b701e	0.05357372
56	0xbd810d6c	-0.06301388
57	0x3d4e08ff	0.050301548
58	0x3c7b3470	0.015332326
59	0xbb90265c	-0.004399104
60	0xbd5cf0b9	-0.05394051
61	0xbe1ce07b	-0.15320008
62	0x3d5a47de	0.053291194
63	0x3d170f74	0.03687997
64	0x3cc08306	0.023499977
65	0xbdcfc248	-0.10144478
66	0xba6e4a2b	-0.00090900314
67	0xbdc789b4	-0.09743062
68	0xbdacce5a	-0.08437796
69	0xbe0b8772	-0.13625887
70	0x3dd58987	0.10426622
71	0xbd17d0a6	-0.037064217
72	0x3cb55842	0.022136811
73	0xbdae564d	-0.08512554
74	0xbbf99cac	-0.0076175537
75	0x3ddc4df3	0.10757055
76	0x3cf94e1d	0.030432755
77	0x3d678efa	0.056532837
78	0x3da33dfe	0.079708084
79	0xbd931956	-0.07182567
80	0xbe0ca10d	-0.13733311
81	0x3c7a855d	0.015290585
82	0x3ddf1d67	0.1089428
83	0x3dba7a50	0.091053605
84	0x3be19eb3	0.0068853735
85	0x3d26e7e8	0.040748507
86	0x3dd01137	0.101595335
87	0x3d4a7e38	0.049436778
88	0xbd245d1a	-0.04012785
89	0x3cf2671e	0.029590186
90	0xbe0fd7b9	-0.14047135
91	0xbd3ff7fd	-0.04686736
92	0xbcfcb164	-0.030846305
93	0x3d990ad0	0.074727654
94	0x3d8b29f0	0.06795108
95	0xbd874132	-0.06604232
96	0xbdac64ff	-0.08417701
97	0x3dc61b45	0.0967317
98	0xbdb14057	-0.0865485
99	0xbdcaa1fe	-0.09894179
100	0xbd4d5b35	-0.05013581
101	0xbd4d957b	-0.050191384
102	0x3cbe4c81	0.02322984
103	0xbe038fd9	-0.12847842
104	0x3db929b4	0.09041157
105	0xbd168a96	-0.03675326
106	0x3dbddc35	0.09270517
107	0x3d185eaa	0.037199654
108	0xbd4865d0	-0.04892522
109	0xbe0a9511	-0.13533427
110	0xbc866679	-0.016406285
111	0xbdc822ec	-0.09772286
112	0x3d3d8ac0	0.0462749
113	0x3dcdbf14	0.10046211
114	0x3cb82795	0.022479812
115	0xbdd6eb91	-0.104941495
116	0x3de45709	0.11149413
117	0x3d5efe03	0.054441463
118	0xbc1f5d14	-0.009726781
119	0xbca11651	-0.019663962
120	0x3c94df93	0.018173015
121	0x3d0202e6	0.031741045
122	0xbd4180a9	-0.04724184
123	0x3cb7cf4f	0.02243772
124	0xbd55f3df	-0.052234527
125	0xbd0c3f0c	-0.034239814
126	0x3e06cffb	0.13165276
127	0xbdd743c7	-0.105109744
128	0x3cc91c3a	0.024549592
129	0x3d07808c	0.033081576
130	0x3dbd2480	0.092354774
131	0x3ddc4702	0.10755731
132	0x3d1692b2	0.036760993
133	0xbdbfd2f3	-0.09366407
134	0x3ce35f31	0.027755352
135	0xbd430644	-0.047613397
136	0xbe1c58c3	-0.15268235
137	0xbdb557f5	-0.08854667
138	0xbd4d1a6a	-0.05007402
139	0xbe3418c6	-0.17587575
140	0x3e393749	0.18087496
141	0xbe023003	-0.12713628
142	0x3ca85c54	0.020551838
143	0xbe014788	-0.12624943
144	0xbde10c50	-0.109886765
145	0xbd659857	-0.056053486
146	0xbd1ac813	-0.037788462
147	0xbd29ca59	-0.04145274
148	0x3dc2d482	0.09513189
149	0x3d82f773	0.063948534
150	0xbd1dc085	-0.03851368
151	0xbd619051	-0.05506927
152	0x3e05cb77	0.13065897
153	0xbcb3eeb9	-0.021964418
154	0xbd5efed5	-0.054442246
155	0xbd26a901	-0.04068852
156	0x3de8704b	0.11349543
157	0xbd5edbce	-0.05440884
158	0xbcdde9ce	-0.027089026
159	0x3c224fba	0.009906704
160	0xbd830ed6	-0.06399314
161	0x3d011633	0.03151531
162	0x3d962d7d	0.07332895
163	0xbb95f3ce	-0.004576183
164	0xbd001062	-0.031265624
165	0x3d88ab7d	0.06673334
166	0x3d9ff7cf	0.078109376
167	0x3cd8ab78	0.02644895
168	0x3d5dec7a	0.0541806
169	0x3cc1359f	0.023585139
170	0xbd8cb69f	-0.0687077
171	0x3d8c20a5	0.06842164
172	0x3cab8f4a	0.020942349
173	0x3ca27aa8	0.019833878
174	0x3e166f65	0.14690931
175	0xbc5d6f9e	-0.013515381
176	0x3dabc95b	0.08388015
177	0x3d86f512	0.06589712
178	0xbcd33177	-0.025780423
179	0xbd4962e1	-0.049166564
180	0xbd8b9cb5	-0.06816999
181	0xbdc9cbcf	-0.098533265
182	0xbd22cea0	-0.039747834
183	0x3d6a490b	0.057198565
184	0xbccac593	-0.024752414
185	0xbde69ff0	-0.112609744
186	0x3d3f1e08	0.0466595
187	0xbc731fa5	-0.014839088
188	0xbd91cd38	-0.071192205
189	0xbd9f0b66	-0.07765846
190	0x3dbf7c23	0.09349849
191	0xbda0f7d2	-0.07859768
192	0xbded832b	-0.11597284
193	0xbcda9f2a	-0.026687223
194	0xbe07d5e5	-0.13265188
195	0xbd5c87c8	-0.05384043
196	0x3e1e449b	0.15455858
197	0xbd4c27c5	-0.049842615
198	0x3c1377ce	0.009000732
199	0xbd7d8ce0	-0.061901927
200	0x3c8a9687	0.01691748
201	0xbe30daca	-0.17270961
202	0xbd838ca4	-0.064233094
203	0x3dd1262a	0.10212357
204	0x3dcd06d3	0.10011067
205	0x3df26b97	0.118369274
206	0xbde236f9	-0.110456415
207	0x3d5d699a	0.054055788
208	0xbd5fa211	-0.054597918
209	0xbe1b6e0a	-0.15178695
210	0x3d7b494e	0.061349206
211	0xbd096af3	-0.03354926
212	0x3b030c35	0.001999629
213	0xbd797b78	-0.060908765
214	0x3d34a1db	0.04409967
215	0x3c275bba	0.01021474
216	0x3dab8117	0.08374231
217	0xbd80cdb3	-0.06289234
218	0xbd4abd97	-0.049497213
219	0x3d33a4d0	0.04385835
220	0xbd55a0e2	-0.052155383
221	0xbba95b26	-0.0051683364
222	0xbd59c8c4	-0.05316998
223	0xbdb976a1	-0.0905583
224	0x3d91ccb1	0.0711912
225	0xbcb7fa69	-0.022458272
226	0x3e1b7691	0.15181948
227	0xbd368369	-0.044558916
228	0x3d607e93	0.05480821
229	0x3d435172	0.047685094
230	0x3de65e14	0.11248413
231	0x3da743de	0.081672415
232	0x3b5a7b52	0.0033337665
233	0x3b257927	0.0025249214
234	0x3d311388	0.043231517
235	0xbcbf3882	-0.023342375
236	0x3d9fb288	0.07797724
237	0x3da0f42c	0.07859072
238	0xbcdfc907	-0.027317537
239	0xbe068a8f	-0.13138793
240	0xbd7c80db	-0.061646324
241	0x3d822370	0.063544154
242	0xbdf50236	-0.11963312
243	0x3d0abbde	0.03387057
244	0xbd88fbfc	-0.06688687
245	0x3dfcaf68	0.123381436
246	0xbdb8db66	-0.09026222
247	0xbcc2d5b5	-0.023783544
248	0xbd68391f	-0.0566951
249	0xbe12e816	-0.14346346
250	0xbd260cf2	-0.04053969
251	0xbc0184b3	-0.007905173
252	0x3bdb1606	0.006685975
253	0xbc0f8ea2	-0.008762034
254	0x3c1363cd	0.008995962
255	0xbdbf4408	-0.09339148

f6.bias f4 [84]
0	0x3d055931	0.032555763
1	0xbd442241	-0.04788423
2	0xbd899e65	-0.067196645
3	0x3d7147b5	0.058906276
4	0x3a513ffc	0.00079822517
5	0xbce5d6d9	-0.028056549
6	0xbd81428a	-0.063115194
7	0xba8254d5	-0.0009943495
8	0xbcbdfc43	-0.023191577
9	0xbc5194bf	-0.0127918115
10	0x3d17414c	0.036927506
11	0xbd04a524	-0.032384053
12	0x3d42c5b5	0.04755183
13	0xbd2d63ec	-0.04233162
14	0x3cc36d53	0.02385584
15	0x3d16c1e9	0.03680602
16	0xbd9d71a2	-0.07687689
17	0xbcdde4b0	-0.027086586
18	0x3c31a1bf	0.010841786
19	0xbc07fa4b	-0.008299421
20	0xbd8442e2	-0.064580694
21	0xbc91d11f	-0.017799912
22	0xbca2c00f	-0.019866971
23	0x3d9982fc	0.074956864
24	0xbd18da94	-0.037317827
25	0xbc17a0ae	-0.009254618
26	0xbd995be9	-0.074882336
27	0x3d70915e	0.058732383
28	0xbd851bad	-0.06499419
29	0x3cfd865a	0.030947853
30	0x3d918f4c	0.0710741
31	0xbd5ad8f1	-0.053429548
32	0x3d9ebb43	0.07750561
33	0x3cbfdea5	0.023421595
34	0x3dbf1cc0	0.093316555
35	0xbda1ff73	-0.07910051
36	0xbc2b5592	-0.010457413
37	0x3db83a51	0.08995498
38	0x3d616129	0.0550243
39	0x3cb048ca	0.021519084
40	0xbd641e48	-0.05569294
41	0x3d5d3feb	0.054016035
42	0xbd857756	-0.06516902
43	0x3c78944c	0.0151720755
44	0x3c242cd2	0.010020452
45	0x3b940075	0.004516656
46	0xbb9653d2	-0.004587629
47	0xbd189070	-0.03724712
48	0xbd5db04d	-0.05412321
49	0xbd37ca3b	-0.044870596
50	0xbc26c0bf	-0.01017779
51	0x3d9b7fef	0.07592761
52	0x3d99b17a	0.07504554
53	0xbd9b50f6	-0.075838014
54	0xbd3db909	-0.04631904
55	0x3d63ff27	0.055663254
56	0x3d2792bf	0.040911432
57	0xbd2fb8d2	-0.042900868
58	0x3d98ce50	0.07461226
59	0x3d1ebcdf	0.03875434
60	0x3d46a002	0.04849244
61	0xbd6503f5	-0.055911977
62	0x3d51b9b6	0.0512025
63	0x3d45c172	0.048280187
64	0x3c548186	0.012970334
65	0x3cbd8d7e	0.023138758
66	0xbc350247	-0.011047906
67	0x3d74d3e6	0.059772395
68	0x3c935710	0.01798585
69	0x3d5198a6	0.051170968
70	0x3d110d8b	0.035413306
71	0x3d4f62ee	0.050631456
72	0xbc2e19ae	-0.01062624
73	0xbd8e1f9b	-0.06939622
74	0xbd4e472c	-0.050360844
75	0x3d13a099	0.03604183
76	0x3d4f90ef	0.05067533
77	0xbda24fe1	-0.07925392
78	0xbd1533b3	-0.036426257
79	0xbc9a0555	-0.01880137
80	0xbda535da	-0.08066912
81	0xbd41a1b5	-0.047273356
82	0x3d307a0e	0.04308515
83	0x3d7a6c79	0.061138604

output.weight f4 [10, 84]
0	0xbda488e4	-0.08033922
1	0x3e6edad3	0.23325662
2	0xbda11fd1	-0.078673966
3	0x3dc6ccb2	0.09707011
4	0x3e6a8b35	0.22904666
5	0x3df414ab	0.119180046
6	0xbdb44ea4	-0.08804062
7	0x3d85944c	0.06522426
8	0xbe36939d	-0.17829747
9	0xbda8e59e	-0.08246921
10	0xbe25ce67	-0.16192017
11	0x3ca893c6	0.020578276
12	0x3ec873d2	0.39150864
13	0xbd9a8194	-0.07544246
14	0x3e1ec100	0.15503311
15	0xbe89b622	-0.2689677
16	0x3de8eaef	0.11372935
17	0xbea2296c	-0.31672227
18	0xbc56cb25	-0.013109957
19	0x3e2c2e72	0.16814592
20	0x3c2dee61	0.010615916
21	0xbe3db899	-0.1852745
22	0xbe0adbd5	-0.13560422
23	0xbe84de11	-0.25950673
24	0xbea870c1	-0.32898524
25	0x3e851a73	0.25996742
26	0x3df9409e	0.12170528
27	0x3daa7127	0.08322363
28	0x3d67664c	0.056494042
29	0xbdd27ac8	-0.10277325
30	0xbe966479	-0.2937353
31	0x3e09695e	0.134191
32	0xbea8622a	-0.32887393
33	0x3ce367cc	0.027759455
34	0xbe66d6bf	-0.22542857
35	0xbe82b76b	-0.25530562
36	0x3ecc9d5e	0.39963812
37	0xbce65609	-0.028117197
38	0x3e09cad4	0.13456279
39	0xbe4be8bb	-0.19912998
40	0xbe359efc	-0.17736429
41	0x3e6a7995	0.22897942
42	0x3e8339b3	0.2562996
43	0x3b85ee23	0.004087226
44	0x3e799f22	0.2437711
45	0x3e2fbf68	0.1716286
46	0xbdb39b6c	-0.08769879
47	0xbe9ff257	-0.31239578
48	0x3e9f42fe	0.31105798
49	0xbecab20e	-0.3958897
50	0x3db8bd07	0.09020429
51	0x3e443a51	0.19162871
52	0x3ddc4a92	0.10756411
53	0xbd75c8e8	-0.060006052
54	0x3ba16eb4	0.004926527
55	0x3da1b310	0.078954816
56	0xbe526e3a	-0.2054986
57	0xbda61176	-0.08108799
58	0x3e40ee50	0.18840909
59	0x3e3bd3fd	0.18342586
60	0xbe145b8b	-0.14488046
61	0x3c955169	0.018227296
62	0xbe5d8429	-0.21632446
63	0x3e0e2c85	0.1388417
64	0xbcf9f116	-0.030510467
65	0x3d77576d	0.06038611
66	0x3d2216e5	0.039572615
67	0xbe2285d3	-0.15871362
68	0xbdf2fcd5	-0.1186463
69	0x3dce17d0	0.100631356
70	0x3bb0b751	0.005392947
71	0x3ec383b9	0.38186434
72	0xbe958562	-0.29203326
73	0x3d7191ef	0.058977064
74	0x3cceaa90	0.025227815
75	0x3e86a231	0.26295617
76	0xbe9be71d	-0.30449763
77	0x3e862c8b	0.2620586
78	0x3c6d8451	0.014496879
79	0x3de1c169	0.11023218
80	0xbeccf4a7	-0.40030405
81	0xbd8df1a3	-0.06930854
82	0x3e43d93f	0.19125842
83	0xbe86f0b6	-0.26355523
84	0x3ecf6989	0.40510204
85	0x3e892c13	0.26791438
86	0xbdc831a7	-0.097750954
87	0xbd0ba08b	-0.034088653
88	0xbed1430b	-0.40871462
89	0x3e0fe215	0.14051087
90	0x3b2e6b01	0.0026614072
91	0x3d6e5b8a	0.058192767
92	0xbe63f2c1	-0.22260572
93	0xbbcb23a1	-0.0061993157
94	0xbe02f712	-0.12789562
95	0xbb8f156a	-0.0043665664
96	0xbe7df438	-0.24800193
97	0x3e11fb5d	0.14256044
98	0x3e8d3f43	0.27587327
99	0xbe8fa60f	-0.2805638
100	0xbdfed8f4	-0.12443724
101	0xbddb6574	-0.1071271
102	0xbe19f6e4	-0.15035588
103	0xbe335a06	-0.1751481
104	0xbd9a4408	-0.07532507
105	0xbd28d86c	-0.04122202
106	0x3edd4533	0.43216857
107	0x3d9a9cc1	0.0754943
108	0xbea2a4e0	-0.31766415
109	0xbd834ea4	-0.06411484
110	0x3c16baba	0.0091997925
111	0xbda32f48	-0.079680026
112	0x3e99be2e	0.30027908
113	0xbe6f5ba9	-0.2337481
114	0x3c85a106	0.016312134
115	0xbd69ccb2	-0.05707998
116	0x3e5a3161	0.21307899
117	0xbe9e7814	-0.30950987
118	0xbe7ceff6	-0.24700913
119	0x3e3dc5eb	0.18532531
120	0x3d498ad0	0.049204648
121	0xbe9efc12	-0.3105169
122	0xbdcda677	-0.10041516
123	0xbdb5afc5	-0.08871416
124	0x3e795a49	0.24350847
125	0x3e40e90c	0.188389
126	0xbe20d055	-0.15704472
127	0xbe8cadb5	-0.27476278
128	0xbed0c779	-0.40777186
129	0xbe22f3e0	-0.15913343
130	0x3e17b179	0.14813794
131	0x3e8df4e2	0.27725893
132	0xbea4c739	-0.32183245
133	0x3ecf4c56	0.40487927
134	0x3c9c11d8	0.019051477
135	0x3d58cd76	0.052930318
136	0xbe3b8803	-0.18313603
137	0x3ec08c91	0.37607244
138	0xbe44ac38	-0.19206321
139	0x3cbbdaeb	0.022931537
140	0x3e1b3633	0.15157394
141	0xbdc8a5fd	-0.09797285
142	0xbe8a9924	-0.27069962
143	0xbd0c5a48	-0.034265786
144	0x3d52468a	0.051336803
145	0xbe13b819	-0.14425696
146	0x3d4de861	0.050270442
147	0x3ca862b5	0.02055488
148	0xbe16cb3e	-0.14725968
149	0xbe5e0875	-0.21682914
150	0x3cfbe687	0.030749572
151	0x3c454a7e	0.012041686
152	0xbe6376b9	-0.22213258
153	0xbe5dec33	-0.21672134
154	0xbe577b6f	-0.2104318
155	0xbec6132c	-0.38686502
156	0x3e8be3c5	0.27322212
157	0xbdbee733	-0.093214415
158	0xbcea42fb	-0.028596392
159	0xbeb39518	-0.35074687
160	0x3e757203	0.23969273
161	0xbc6bb359	-0.0143860215
162	0x3da73390	0.08164132
163	0xbb9fc335	-0.0048755654
164	0x3ee0448e	0.43802303
165	0xbae21437	-0.0017248456
166	0xbd66467c	-0.056219563
167	0x3e0ff214	0.14057189
168	0xbeaf2871	-0.34210542
169	0xbe118c4e	-0.14213678
170	0x3e29b7eb	0.16574065
171	0x3de957de	0.113937125
172	0xbd9d9e5a	-0.07696219
173	0x3ec7b6d0	0.39006662
174	0xbe9c8caf	-0.30576083
175	0xbd71613e	-0.058930628
176	0x3ecaefa6	0.39635962
177	0x3e1289c3	0.14310364
178	0x3d2f125f	0.04274213
179	0xbef21104	-0.47278607
180	0xbe6d6c7e	-0.23185918
181	0x3d5cf7c3	0.05394722
182	0xbd77ebee	-0.060527734
183	0xbc6d8929	-0.014498034
184	0xbe28ab6b	-0.16471641
185	0xbe92e0d2	-0.2868715
186	0x3eadddb5	0.33958212
187	0x3c90ced0	0.01767674
188	0xbd7fc6a3	-0.062445294
189	0xbe35d47a	-0.17756835
190	0xbe38c70c	-0.1804468
191	0xbd6b1b5c	-0.05739914
192	0x3f03a3b0	0.5142164
193	0x3e85c92b	0.2613004
194	0xbe0a1550	-0.13484693
195	0x3e8ea6a0	0.278615
196	0xbe35f45f	-0.17769001
197	0x3de3b983	0.11119368
198	0xbeba45c7	-0.3638136
199	0xbdc6b5b9	-0.097026296
200	0x3e089940	0.1333971
201	0x3e9f9068	0.3116486
202	0x3e24dfef	0.16101049
203	0xbdab4f47	-0.0836473
204	0x3ec9207c	0.39282596
205	0xbde66d6a	-0.11251338
206	0x3e23ec7b	0.16008179
207	0x3dcf899a	0.10133667
208	0x3e737bfd	0.23777767
209	0x3e99e6ce	0.30058903
210	0xbdd48490	-0.10376847
211	0xbe910db7	-0.28330776
212	0x3d8d3136	0.06894152
213	0xbc7bd940	-0.015371621
214	0x3d449b8e	0.04799991
215	0xbe9fcae9	-0.31209496
216	0xbeb3f24a	-0.3514579
217	0xbcb10c6d	-0.02161237
218	0x3e421712	0.18954113
219	0x3e58aeae	0.21160385
220	0x3e2b27a7	0.16714345
221	0x3adbc7b0	0.0016767886
222	0xbe6b55cc	-0.22981948
223	0x3e9f5f2e	0.31127304
224	0xbc26d1c9	-0.010181853
225	0x3d27e297	0.040987577
226	0xbe54ef47	-0.20794402
227	0x3e306116	0.17224535
228	0x3e87915f	0.26478097
229	0xbe80eed3	-0.25182208
230	0x3d8fb83b	0.07017561
231	0x3d6d0a61	0.057871226
232	0x3d81c72b	0.063368164
233	0x3ea3b50c	0.31974065
234	0xbe342848	-0.17593491
235	0x3e2ccbdb	0.1687464
236	0xbebac4c8	-0.36478257
237	0xbc125578	-0.00893151
238	0xbe9294b4	-0.28629076
239	0x3e95be96	0.29246968
240	0x3e7e9c33	0.24864273
241	0xbe96e910	-0.29474688
242	0x3ba2ad90	0.004964538
243	0x3d11c88c	0.035591647
244	0x3da698ae	0.0813459
245	0xbe022e1d	-0.12712903
246	0x3e9bb9be	0.30415148
247	0x3e9c7216	0.3055579
248	0x3e1737a5	0.1476732
249	0xbdb474ff	-0.08811378
250	0x3e1cb441	0.15303136
251	0x3e523d00	0.20531082
252	0x3ac95bc4	0.0015362431
253	0xbe71eba0	-0.2362504
254	0xbe3b4be1	-0.18290664
255	0x3e7eca79	0.24881925

output.bias f4 [10]
0	0xbe15487b	-0.1457843
1	0xbd86fe4a	-0.065914705
2	0x3c754da5	0.014972125
3	0x3da67f74	0.081297785
4	0xbdb52db9	-0.088466115
5	0x3df6e49a	0.12055321
6	0x3d225128	0.039628178
7	0x3d89ac60	0.06722331
8	0xbd822ac0	-0.0635581
9	0xbc8c8af6	-0.017156105
